ohband-model/python/tflite/oh_band_model_30s.tflite (tflite, 196336 bytes, 8 tensors)

dense_3/bias f4 [10]
000000 48 4c 32 bd f2 dc e0 3b bc e8 04 bf 0f e5 cf be
       -0.04352978 0.0068622762 -0.51917624 -0.40604445
000010 69 91 7f 3c 2d b0 61 3f 8c 92 e1 3e 0f 31 af bd
       0.015598633 0.8815945 0.4405712 -0.08554279
000020 71 d6 eb 3d 9e 63 08 bf
       0.11515511 -0.53277004

dense_2/bias f4 [16]
000000 41 2b 98 bd a1 93 ea 3e fb b1 99 3e 43 50 b9 bd
       -0.07430125 0.45815757 0.300186 -0.09048512
000010 bf 07 ee 3b 00 00 00 00 fb e6 aa be aa d4 01 be
       0.007264107 0.0 -0.3337935 -0.12678781
000020 a6 90 87 bd 7f e8 ed bd 79 91 c8 be 55 e9 06 bf
       -0.066193864 -0.11616611 -0.39173487 -0.52699786
000030 ac b2 c9 3e 1a bf 43 bd 29 13 86 3e 8a 61 11 3f
       0.39394128 -0.04778967 0.26186493 0.5678946

dense_1/bias f4 [32]
000000 6c 5c bf 3e 49 dc 37 bc b9 19 dc b8 24 4a 8e 3d
       0.373752 -0.011221954 -0.00010495209 0.06947735
000010 b7 9a 7c bb 15 b2 40 be 5b 70 e3 be 55 c0 00 bc
       -0.0038544366 -0.18817933 -0.44421658 -0.0078583555
000020 aa 50 1d be 1e 9f 15 bd 07 4b 72 bc ee 60 1c be
       -0.15362802 -0.0365287 -0.014788396 -0.1527135
000030 83 32 9d be 68 32 94 bd f7 d4 81 bc 40 bb a0 3a
       -0.307026 -0.07236177 -0.01584862 0.0012262836
000040 47 8f d1 bc 9d f1 82 3e 5b e4 13 bd 9a e5 34 bd
       -0.025581015 0.2557496 -0.03610645 -0.044164278
000050 b5 2c 70 3d 0b e7 70 bd 75 c1 c4 bb d0 64 01 3e
       0.058636386 -0.05881409 -0.006004507 0.12636113
000060 00 00 00 00 41 6d db 3d 54 56 a4 bd 04 ac 9f 3e
       0.0 0.10714198 -0.08024278 0.31185925
000070 f2 b7 65 bd a3 49 35 bd f2 d4 b3 bc 56 4e bd 3d
       -0.056083627 -0.04425968 -0.021952126 0.09243457

dense/bias f4 [64]
000000 df db 8c ba 1b 8b c2 bb 69 b4 49 bb 63 19 32 bb
       -0.0010746679 -0.005936993 -0.00307777 -0.0027175776
000010 15 6f 95 bb 4a 14 98 bb 6e c9 c1 bb 00 00 00 00
       -0.004560361 -0.0046410905 -0.005913905 0.0
000020 84 43 23 bb 00 00 00 00 cb e2 01 bc 74 78 c2 bb
       -0.0024912069 0.0 -0.007927607 -0.0059347693
000030 b9 1a 5e bb 4f 23 ad bb 00 00 00 00 0e c1 c1 bb
       -0.003389044 -0.00528375 0.0 -0.0059129065
000040 00 00 00 00 7e 1e 01 3e 00 00 00 00 28 05 7e bc
       0.0 0.12609288 0.0 -0.015504159
000050 00 00 00 00 87 e9 81 bb 00 00 00 00 00 00 00 00
       0.0 -0.003964606 0.0 0.0
000060 a7 8d 74 bb 00 00 00 00 c6 99 21 bb e3 b1 7a be
       -0.0037315877 0.0 -0.0024658307 -0.24481921
000070 fb b0 ea bb 00 00 00 00 4b 2f 98 bb f6 43 c1 3c
       -0.007162211 0.0 -0.0046443096 0.023591977
000080 00 00 00 00 51 64 b8 bb 65 4e 3d 3e 2f 0c bf bb
       0.0 -0.005627193 0.18486936 -0.00583031
000090 9a 08 91 be 1f 63 7d bb 02 7b 19 3d 00 00 00 00
       -0.28326875 -0.0038663817 0.037470825 0.0
0000a0 00 6f 83 bb 2c cb ee bb 00 00 00 00 df 47 ea bc
       -0.004011035 -0.0072874036 0.0 -0.028598724
0000b0 52 14 05 bc 10 b7 26 bb 90 e4 f5 bb 28 e4 01 bc
       -0.0081225205 -0.0025438704 -0.0075040534 -0.007927932
0000c0 62 69 2c 3e 6a 58 2e bb e7 af 5e bb 00 00 00 00
       0.16837075 -0.0026602992 -0.0033979358 0.0
0000d0 90 ad c3 bb a7 42 46 bb 68 28 b8 bb 00 00 00 00
       -0.005971618 -0.003025213 -0.005620051 0.0
0000e0 f8 8d 74 be 00 00 00 00 d8 0f 00 bc 00 00 00 00
       -0.23882282 0.0 -0.007816277 0.0
0000f0 d6 c9 5d 3e 00 00 00 00 3f 5e c1 bb 00 00 00 00
       0.21659026 0.0 -0.0059011276 0.0

sequential/dense/MatMul f4 [64, 714]
000000 c1 38 1c 3d 98 cb a4 3d 14 b0 86 3b 71 7d a7 bd
       0.038140062 0.08046645 0.0041103456 -0.08178223
000010 ca 85 46 3c ca ee b1 3c c8 e0 00 3d 36 92 b6 bc
       0.012116859 0.021720309 0.031464368 -0.022286516
000020 44 53 15 bd 94 29 6f 3c db 8d 0b 3d f6 de 59 bd
       -0.03645636 0.014597315 0.03407083 -0.053191148
000030 84 9d a1 3d 43 74 0f bd cc 4b a4 bd 90 f0 ad bd
       0.07891372 -0.035022985 -0.080222696 -0.08493149
000040 93 9d 98 bd fd d9 ad bc 38 40 b1 3d 95 74 17 bd
       -0.0745193 -0.021222109 0.08654827 -0.036976416
000050 54 40 88 bc a1 36 0e 3d e9 68 31 3b ea bd 58 3d
       -0.016632237 0.034720067 0.0027070588 0.05291549
000060 97 cf 37 3d d4 a1 35 bd 23 28 8e bd 71 47 b2 bd
       0.044875707 -0.044343784 -0.06941249 -0.087050326
000070 a1 87 dd 3c c6 65 5e 3c 95 d7 ae 3d 1f a6 4d bd
       0.027042212 0.013574069 0.08537213 -0.050207254
000080 5d aa 2b bd 4e b7 b9 3b 7f 42 8d 3d 68 42 7c bd
       -0.041910518 0.0056676036 0.06897449 -0.061586767
000090 d6 2b 8d bd 43 42 66 bd e3 89 2f 3d 04 77 78 3d
       -0.06893127 -0.056215536 0.04285611 0.060660377
0000a0 29 86 36 bd 17 6f 3d bd df 83 49 bd bc ea 8a 3c
       -0.04456154 -0.04624852 -0.049198028 0.016957633
0000b0 33 df 8b bb 51 a5 a0 3d 34 7e 88 bd ff c5 f0 b9
       -0.004268551 0.078440316 -0.06664696 -0.00045923886
0000c0 fc 25 5f bd 76 fb ab 3d 78 fe ab bd 36 25 35 3d
       -0.054479584 0.08397572 -0.083981454 0.04422494
0000d0 ae c8 a9 3c f9 15 ad 3d b1 e0 de bc a3 f6 50 3d
       0.020725574 0.084514566 -0.02720675 0.05101646
0000e0 66 78 99 3d ea 9d 9e 3c 2b 15 8e bd 5f 5d 44 3b
       0.07493667 0.019362409 -0.06937631 0.002996288
0000f0 31 a0 f5 3c be 37 19 3d 33 bd 37 bd 0b 84 ca bb
       0.029983612 0.037406676 -0.04485817 -0.0061802915
000100 f0 b0 29 3d 0b cd 62 bd 08 50 83 3d f0 87 7c bd
       0.041428506 -0.055371325 0.06411749 -0.061653078
000110 7e cd a9 bb 9f c6 5a 3d 61 c4 58 3b b5 ff 0f 3d
       -0.0051819673 0.053412076 0.0033076035 0.03515597
000120 47 ea a5 3c 58 d6 8f 3d e0 81 5f 3c 66 a1 25 3d
       0.020253314 0.07023305 0.013641804 0.040437125
000130 fe 02 e1 3c ed fa 01 bc f6 8f 90 3d b2 8a a8 3d
       0.027467247 -0.0079333605 0.07058708 0.08229579
000140 e3 6b 4f bd fc 2d d2 3c de 18 9d bd ac 57 4a bd
       -0.05064 0.025656693 -0.07670759 -0.049400017
000150 7c af 9f bd 85 02 74 3d 4c 30 b4 bc 89 45 57 bb
       -0.07797143 0.059572715 -0.021995686 -0.0032847843
000160 d2 db a6 bd b2 15 12 3d f4 23 35 bd 65 e6 5a 3c
       -0.08147396 0.03566522 -0.04422374 0.013360594
000170 76 b2 6e bd cf ac a7 3c 44 c6 eb 3c 57 d6 8b 3c
       -0.058275662 0.020468144 0.028781064 0.017069979
000180 08 95 23 bd 0e 18 59 bd 6e 88 ab bb aa a1 b4 bc
       -0.03993705 -0.053001456 -0.0052347695 -0.022049744
000190 b6 ed 67 3d af ce 37 3c 3a 48 56 bc 94 a5 05 bd
       0.056623183 0.011218711 -0.013078744 -0.03262861
0001a0 f2 33 3b bd e3 1b 8d 3d d3 61 70 bd ce 70 a2 bd
       -0.045703836 0.068900846 -0.058687042 -0.07931672
0001b0 86 69 ab bd c8 f2 1a bd 12 9a f9 3b 1c ec b0 bd
       -0.083697364 -0.03782919 0.0076172436 -0.08638784
0001c0 b1 a6 36 3d 56 3e 5d bd c3 7f aa 3d 99 7a 41 bd
       0.044592563 -0.054014526 0.0832515 -0.04723606
0001d0 e3 b0 36 3c 5c e5 b5 bb 24 3e ca 3c 2b 53 73 3d
       0.0111505715 -0.0055510234 0.024687834 0.059405487
0001e0 64 c3 c9 bc ba 43 a3 bc 6f c9 91 bd 66 2d 34 3d
       -0.024629302 -0.019929755 -0.071184985 0.043988608
0001f0 2d b7 f5 3b b6 d5 b1 bc 8a 77 82 3d bc 72 a1 bd
       0.007498643 -0.02170835 0.063704565 -0.07883212
000200 fe 13 54 3d 16 1a b2 bd c2 f4 4c bd 37 83 a2 bc
       0.05177688 -0.08696382 -0.050038107 -0.019837959
000210 27 d2 db 3b 15 7b 4f bd e1 c8 bd bc ec 7d 16 bd
       0.0067084017 -0.05065449 -0.023167076 -0.036741182
000220 92 fb 4a bd 40 c6 1b bd 2e 1c aa bd 26 1f ae bd
       -0.049556322 -0.038030863 -0.08306156 -0.08502035
000230 95 0c f4 3c 08 95 ae bd c1 74 cd bb 41 de 7c bd
       0.029791156 -0.08524519 -0.0062700217 -0.061735395
000240 46 1d 25 bb 8c fd 60 3b 05 49 0d bd 52 63 a0 bd
       -0.002519445 0.0034330813 -0.034493465 -0.07831444
000250 11 c3 fb bc 1e 3f b3 3b 19 a9 23 3d 14 71 55 bd
       -0.030732663 0.0054701706 0.039956186 -0.052109793
000260 cb 57 a2 bd 91 14 80 bd cd 34 43 bb ac be fb bc
       -0.079269014 -0.06253923 -0.002978611 -0.030730568
000270 7e 6d ae 3c 07 ff 4a 3d 7e df 21 3c 59 b4 af 3d
       0.021292444 0.04955962 0.009879945 0.085793205
000280 7e 50 98 bd 31 8f 98 bd 63 72 0e 3d b2 1c 28 bb
       -0.07437228 -0.074491866 0.034777056 -0.002565187
000290 91 a9 9c bc 06 7b ce 3c 99 e9 7b bd 2c 77 9a 3c
       -0.019123824 0.025205147 -0.061502073 0.018855654
0002a0 5b 1f 0b 3d 3b f5 83 bd 84 e9 31 bd 30 75 9c bd
       0.03396545 -0.064432584 -0.04343559 -0.07639539
0002b0 f0 8b 97 3d da d4 27 bd bf 21 61 3d 69 e2 3d bd
       0.07399738 -0.040974475 0.054963823 -0.0463585
0002c0 dd 60 03 bd c8 f8 80 bd 91 f2 45 3c 2e af 28 bd
       -0.032074798 -0.06297451 0.012081758 -0.04118269
0002d0 e2 be 20 3d 65 48 f5 3c c0 c0 3d 3d 01 7a 18 3d
       0.03924454 0.029941747 0.0463264 0.037225727
0002e0 02 16 23 3d c2 4b cd bc 68 38 aa 3c cb c7 13 bc
       0.03981591 -0.025060538 0.02077885 -0.009019802
0002f0 eb 0e 6e bd 11 0d be bb 85 7c cb 3b ed 47 aa 3d
       -0.058119696 -0.0057998975 0.0062099122 0.083145
000300 8b b1 b1 bc 08 d4 60 bc 3b a7 eb bc 1e ea 92 bd
       -0.021691104 -0.013722427 -0.028766265 -0.071735606
000310 d9 50 ea bb 93 ff e5 3c 6e 6b 79 3d f3 59 94 bd
       -0.007150751 0.028075969 0.06089347 -0.07243719
000320 35 aa 93 3d 3b 01 cb 3a c6 21 07 3d 0f b9 25 3d
       0.07210199 0.0015488038 0.032991193 0.04045969
000330 dc 82 20 3d f9 60 0f bd 20 1e 34 bd dd d3 96 bc
       0.039187297 -0.03500459 -0.043974042 -0.018411571
000340 45 22 c7 3b a1 be 94 bd 64 39 71 bd 26 2d 9c bd
       0.0060770833 -0.07262922 -0.058892623 -0.07625799
000350 07 1b 88 3c b2 b0 4f 3c 76 f4 9e bb 59 92 2c bd
       0.01661445 0.012676405 -0.0048509194 -0.042131756
000360 15 a2 92 3d 59 39 33 3d a1 b0 90 bd d8 a3 a0 3d
       0.07159821 0.043755863 -0.07064939 0.07843751
000370 b3 9c 85 3d e8 57 5f 3d 2d 2f 92 3c 3a bd 6b bd
       0.06524029 0.054527193 0.01784476 -0.057553507
000380 7d 17 ab 3a 65 c9 3c 3c f3 91 8f bc 06 eb b3 bd
       0.0013053265 0.011522626 -0.017525649 -0.087850615
000390 0c 07 a3 bd 49 ee fb 3b 9a e9 59 bd 3a de 67 3c
       -0.079603285 0.007688318 -0.053201295 0.014152104
0003a0 f8 1c 3a 3d b3 d1 8d bd f6 05 92 3d 4e be 4c 3d
       0.045437783 -0.069247626 0.07130043 0.049986176
0003b0 5e 70 80 3d 2b 7a 72 3d 2b 07 7c 3d 43 2b 17 3d
       0.06271432 0.05919854 0.061530273 0.036906492
0003c0 5f bd 86 bd 0b e0 d6 3c c1 40 96 3d f3 07 80 bd
       -0.065790884 0.026229879 0.073365696 -0.06251516
0003d0 c8 72 74 3c bf f4 aa bd a9 ec 93 3c ae 61 8b bd
       0.014919944 -0.08347463 0.018057184 -0.0680574
0003e0 bc a3 b7 bd b1 fa af 3d 4d dd cf 3c 85 ef 97 bd
       -0.08966777 0.085927375 0.02537408 -0.074187316
0003f0 60 dd 84 3c 07 46 2a bd 6a a9 61 bd 39 ec 2f bd
       0.016218841 -0.04157069 -0.055093206 -0.04294989

sequential/dense_1/MatMul f4 [32, 64]
000000 a8 42 3b 3e 42 12 6b be 53 17 8e bd 68 e2 b8 3d
       0.18287146 -0.22956184 -0.069380425 0.090275586
000010 9b b9 07 3d 2f 83 34 3d b5 31 18 be 00 73 d8 3c
       0.03313599 0.04407042 -0.14862712 0.026422024
000020 e9 bb 06 be d0 d6 98 3d f5 36 48 be 35 05 08 be
       -0.1315762 0.07462847 -0.19552214 -0.13283236
000030 d0 f9 6f 3d 82 2e 57 3d 68 b6 f1 3d 43 37 d9 bd
       0.05858785 0.052534588 0.11802369 -0.106062435
000040 6c f2 14 be 92 1b 0b 3f 2c bc 5e be 98 6a 02 3e
       -0.14545602 0.54338944 -0.2175147 0.12735975
000050 20 95 f7 3d 9c ff 8e bd 74 b8 75 be 98 78 b3 3d
       0.1208899 -0.06982347 -0.23996145 0.08763236
000060 28 6f 0b 3e 08 e0 4e be 5d 4a 30 be 6d b7 ea 3d
       0.13616621 -0.20202649 -0.17215867 0.11460767
000070 4b 67 06 be 28 bc dd bd be a9 3d 3e 67 97 f5 3c
       -0.1312534 -0.108269036 0.18521783 0.02997942
000080 78 4f c0 3d 40 58 b8 bd 8d 32 40 3f 41 87 ac 3d
       0.093901575 -0.09001207 0.75077134 0.08424235
000090 53 8d 6d be a7 2d 40 be 53 3a 9a bd 30 19 77 bd
       -0.23198442 -0.18767415 -0.07530656 -0.060326755
0000a0 c7 1a 93 bd 36 dc 5e 3d a0 be 06 bd 61 7c b7 3e
       -0.07182842 0.05440923 -0.032896638 0.3583708
0000b0 36 39 03 3e 11 d7 f7 bd c7 35 bf 3d 76 41 fe 3c
       0.12814793 -0.121015675 0.09336429 0.031037074
0000c0 0a 1a 2a 3f 6e ba c9 3d 7d be d5 3c 00 3b 4a 3c
       0.6644598 0.09850012 0.026091808 0.012343168
0000d0 68 80 0c be e0 45 b6 bc 34 56 58 bd 40 4b db 3d
       -0.13720858 -0.022250116 -0.052816585 0.10707712
0000e0 80 f5 9a bd 18 f8 73 be 93 a2 92 bd 00 cd 84 3d
       -0.07566357 -0.23825109 -0.07159915 0.06484413
0000f0 61 e8 36 3f 10 3e a6 bd 9c 4f 04 be 20 b2 36 3d
       0.7144833 -0.08117306 -0.12920994 0.044603467
000100 b8 2b b2 bd 48 72 85 bd 98 91 76 be c2 6d c9 bd
       -0.08699745 -0.06515938 -0.24078977 -0.09835388
000110 c1 2e ad 3c 38 1c cc 3d 1c b1 1f be 80 4d e7 bb
       0.021140458 0.0996632 -0.15594906 -0.0070587993
000120 20 a3 6e bd 80 88 a8 3c 40 a8 00 3c 58 fa 8d bd
       -0.058261037 0.0205729 0.007852614 -0.06932515
000130 cf 81 45 3c 71 10 28 3c 90 c6 db bd 94 ad 2d 3d
       0.012054875 0.010257826 -0.10731232 0.042401865
000140 60 69 d0 bc ff 48 d0 bd 00 0b 6d 3b 1c c5 52 be
       -0.025440872 -0.10170173 0.0036169887 -0.20583004
000150 04 7e 2e be a1 e7 71 3e 00 d2 1a 3e c0 6a 3f be
       -0.17040259 0.23623516 0.15119171 -0.18693066
000160 02 30 18 3e d8 2f b9 3d 24 fe 93 bd 8a 98 28 be
       0.14862064 0.090423286 -0.07226208 -0.16464439
000170 8e bb 75 be 48 9f 10 3e bd 5e 2b be 7c e7 aa bd
       -0.23997328 0.14123261 -0.16735359 -0.083449334
000180 98 62 a7 3d 72 39 63 3e d4 3d 0c be 30 dc 62 3d
       0.08173102 0.22189882 -0.1369546 0.05538577
000190 00 63 90 3b 88 38 1a 3e 0f 16 cf bd 00 b1 54 3b
       0.004406333 0.15060627 -0.10111629 0.0032454133
0001a0 9f 61 84 3c 9f 9f 15 3e 60 20 41 bd ef a1 8e 3d
       0.01615983 0.14611672 -0.047150016 0.0696448
0001b0 dc 77 4a 3e 1d e5 12 bc 0d e5 6e be b4 7e 65 bd
       0.19772285 -0.008965758 -0.23329563 -0.056029037
0001c0 a8 33 73 3e 67 fb a7 bd 78 a0 76 3e 50 29 f6 3d
       0.23750174 -0.08202248 0.24084651 0.120195985
0001d0 80 08 dd 3d 67 64 04 3e 39 d9 92 bd 7c ef 50 be
       0.10792637 0.12928925 -0.07170338 -0.20403856
0001e0 bc a4 71 be 80 c1 ac 3c 88 e3 8f bd 54 c3 5a 3e
       -0.23597997 0.021088362 -0.0702582 0.21363574
0001f0 ec b3 b7 3d 0c 5b 47 be 8c 86 52 3e c0 31 ec 3c
       0.08969864 -0.19468325 0.20559138 0.028832316
000200 98 a2 6b 3e 00 22 a7 3b ec 33 0e be 24 03 69 be
       0.23011243 0.0051004887 -0.13886994 -0.22755104
000210 38 76 de bd 50 c4 10 bd 9c da 4a 3e 80 41 d7 3b
       -0.10862392 -0.03534347 0.19809955 0.0065690875
000220 7c b2 3e 3e 00 e4 27 bd d4 9b 6e be 74 db 0b be
       0.18622774 -0.040988922 -0.23301631 -0.13657933
000230 60 0d 46 3d d0 77 17 be d8 4c 76 3e b0 af 97 3d
       0.0483526 -0.14791799 0.24052751 0.074065566
000240 f4 6c 3f be a9 eb 31 3e 20 cb 24 bd 39 8f 39 be
       -0.18693906 0.17375053 -0.040232778 -0.18121041
000250 30 07 8f 3d 50 b5 4c bd 70 10 af bd b0 39 17 3e
       0.06983793 -0.0499776 -0.08548057 0.147681
000260 80 5d 6f 3c 6c 33 3e be d4 2e 71 be 53 90 cf 3e
       0.0146096945 -0.18574303 -0.2355302 0.40539798
000270 fb d0 95 bd 24 6c 21 3e 40 fa 1e be 8a b0 9c 3c
       -0.073152505 0.15763909 -0.1552515 0.01912715
000280 20 92 16 3d a0 21 26 be 6b 18 26 be 90 1d f4 bd
       0.03676045 -0.16223764 -0.16220252 -0.11919701
000290 76 8b 83 3e 50 20 33 3e 29 26 0e 3e 70 22 5a 3d
       0.25692338 0.17492795 0.13881744 0.0532555
0002a0 00 1a c8 3a c0 67 9b bc 00 2b fd bc 02 53 33 bf
       0.0015266538 -0.01897037 -0.030904293 -0.70048535
0002b0 a8 0f d0 bd 60 a7 8c 3c f0 9b 9d bd 20 de 09 3d
       -0.10159236 0.017169654 -0.07695758 0.0336591
0002c0 8d d4 4e be 6c 93 03 3e 68 c2 a2 3d 08 eb 34 3e
       -0.20198269 0.12849206 0.07947236 0.17667782
0002d0 30 c3 5e bd 30 33 6f bd 60 db 6a 3d 5c d5 30 be
       -0.054385364 -0.058398426 0.05733812 -0.1726889
0002e0 b1 cb ed 3d 88 d7 ac 3d a0 70 bd bc b0 f9 3f 3d
       0.11611117 0.08439547 -0.023124993 0.04686898
0002f0 82 41 ac bd a0 09 9d bd 00 94 90 bd 70 d7 1c 3e
       -0.08410932 -0.076678514 -0.07059479 0.15316558
000300 4d 7a 43 bc e8 d8 c0 bd 50 58 93 bd 1c f3 d4 bd
       -0.011931014 -0.094163716 -0.07194579 -0.10397932
000310 89 9f 1c be a0 47 fe bc 60 ed 4e be b8 fc e9 3d
       -0.15295233 -0.031040013 -0.20207739 0.114251554
000320 68 54 04 be 00 bc fd 3a 90 4c 36 be 40 45 f5 3c
       -0.12922823 0.0019358397 -0.17802644 0.029940248
000330 e0 5f 00 3c 0a d7 a3 3d e0 2c 12 be d6 6b 1f 3e
       0.007835358 0.08 -0.14274931 0.1556848
000340 c0 89 5f 3e 92 a9 05 3e 40 68 8d 3d 3f 7f 1b 3e
       0.21829891 0.13052967 0.0690465 0.1518526
000350 20 33 d6 3c ef 88 98 3d 30 62 fb 3d 60 bc 13 3e
       0.026147425 0.07447993 0.12274587 0.14427328
000360 d8 e2 91 3d f4 26 3d be 34 2b d0 bd 5f 18 fa 3e
       0.07123345 -0.1847189 -0.1016449 0.4884672
000370 97 30 03 be c0 1e 35 3d ff 42 07 be 38 59 43 3e
       -0.12811504 0.04421878 -0.1320915 0.19077003
000380 58 c5 ae 3d 0c 3d 3c be 2f 25 57 be 40 ca 89 3d
       0.08533734 -0.18382663 -0.21010278 0.06728029
000390 4d a4 fc 3e d4 52 06 bc 86 82 cb 3e 58 1f 5e be
       0.49344102 -0.008198459 0.3974802 -0.21691644
0003a0 f8 e1 58 be be 02 96 bc e0 cc fb 3d 95 a2 31 bf
       -0.2117995 -0.018311854 0.12294936 -0.69388705
0003b0 7f 91 c3 3d d9 38 b1 3d 10 2d 30 be a8 c2 f2 bd
       0.095492356 0.08653421 -0.1720469 -0.11853534
0003c0 bc 9d a1 be 5c de 24 be 74 4e d3 bd 20 bf dd bc
       -0.31565654 -0.16100448 -0.10317698 -0.027068675
0003d0 2c 77 1a be 0d db 4b 3e 74 11 1f be f0 cb 17 bd
       -0.15084523 0.1990778 -0.15534002 -0.037059724
0003e0 e7 6a 1b 3e 7c 55 56 3e d8 e4 6a 3e 0c ed 6f 3e
       0.15177499 0.20931047 0.2293886 0.2343027
0003f0 cc e0 d4 bd d0 fa 1a 3e 00 72 df bb a0 47 3f be
       -0.10394439 0.1513474 -0.00681901 -0.18679667

sequential/dense_2/MatMul f4 [16, 32]
000000 0c 35 be bd c0 f9 b0 bd d9 96 90 3e be b0 1b be
       -0.09287462 -0.08641386 0.28240088 -0.1520414
000010 04 8f 7c be 08 a3 c6 be 04 54 06 bd d4 e6 8d be
       -0.24663931 -0.38796258 -0.032794967 -0.2771517
000020 93 f5 24 be 00 6f 4f 3d 94 b4 9b bd 77 05 2d be
       -0.16109304 0.050642967 -0.07602802 -0.16896616
000030 cc aa 0f 3e c4 6e 21 be 2a 37 4d 3e 0d 36 af 3e
       0.14029998 -0.1576491 0.20040575 0.34220925
000040 5c c5 9b be ee 5b 29 bd 80 19 9e bb 2a c3 01 be
       -0.3042401 -0.041347437 -0.004824817 -0.12672105
000050 44 67 9c bd b7 4b 25 3c bd 5d 6b be ff 0c a9 be
       -0.07636884 0.010088853 -0.22984977 -0.33017728
000060 ce f9 3a be ea b1 a4 bd 50 9c 4a bd 5f 49 75 be
       -0.18259355 -0.08041747 -0.049465477 -0.2395377
000070 bb 65 0c be c2 8e 75 3e a8 b7 42 3d 97 94 95 3e
       -0.13710682 0.23980239 0.04753843 0.29214928
000080 83 6d 2b 3f b3 a4 33 be 9b c7 89 bd 6d f3 8f bc
       0.66963977 -0.17543297 -0.06727525 -0.01757213
000090 33 20 4c be de 68 9d 3e a9 bb 55 be b2 ce af be
       -0.19934158 0.3074407 -0.20872368 -0.34337384
0000a0 d2 11 95 be ab 56 a9 3e a1 1d 0f 3e ef 18 f3 bd
       -0.29115158 0.33073935 0.13976146 -0.1186999
0000b0 f2 05 bd 3d 48 43 9c 3e 45 34 b0 3e c3 52 5d bf
       0.092296496 0.30520082 0.34414878 -0.8645441
0000c0 3c 8e ab be 98 7e f0 3d 39 a7 79 3c 73 15 9d be
       -0.33506954 0.11742896 0.015237623 -0.30680427
0000d0 e6 fa 9c 3e d5 49 c2 3e 71 95 2d 3d ee 2e f5 bc
       0.3066017 0.37946954 0.042378847 -0.029929604
0000e0 10 d1 41 be 96 1a c2 be 9d 8f ac 3d 62 12 2b 3f
       -0.18927407 -0.37910908 0.084258296 0.66824925
0000f0 85 d0 4e 3e bc 99 27 bd 28 2e 9c be ce 77 09 3f
       0.20196731 -0.040918097 -0.30503964 0.5369843
000100 ad 71 b2 3e 29 3b 07 3d d2 6e 50 bf 98 ad 65 bf
       0.34852353 0.033015404 -0.814191 -0.8971801
000110 21 7f 25 3e 99 29 bd be 3b a1 67 3e cf a1 b7 bd
       0.16161777 -0.369458 0.22620098 -0.089664094
000120 7b b7 4b be 9d 6d 29 be 04 46 a1 bd 80 23 0b 3e
       -0.19894211 -0.1654572 -0.078746825 0.13587761
000130 74 dc ab be ad 72 8a be 62 a0 ca 3c 60 e3 d4 3e
       -0.3356663 -0.27040616 0.02473468 0.41579723
000140 f2 98 db 3e 71 0e 4d 3f c9 e1 b2 be d6 e7 8a be
       0.42890126 0.8010016 -0.34937885 -0.27130002
000150 6d 37 a8 3e 31 92 fd bd ec cb 99 bc cf 07 d8 3f
       0.32854787 -0.123813994 -0.018773995 1.6877383
000160 d6 be 5e be 00 08 4f 3e 2a f7 fe 3d 87 7c d4 bd
       -0.21752486 0.20217896 0.124494866 -0.10375314
000170 60 9b ac bd 13 d7 4f 3c 98 2d a9 be ad 58 76 bf
       -0.08428073 0.012685555 -0.33042598 -0.9622906
000180 e1 81 a4 bd 74 cf 85 be c1 8c b4 be 4b e2 2d bc
       -0.08032585 -0.26134837 -0.35263637 -0.0106130345
000190 e1 97 9d be d0 48 96 be b9 41 54 bd 54 59 e5 bd
       -0.30779937 -0.29352427 -0.05182049 -0.111986786
0001a0 87 e2 3b be 7f ab 84 be a5 94 20 3e 43 fc 28 3e
       -0.18348132 -0.2591209 0.15681703 0.1650248
0001b0 4b e8 a5 3e 09 9f 91 3e 18 29 69 3d 4e b1 89 be
       0.32403788 0.28441647 0.056923956 -0.26893085
0001c0 ac 30 3d be 48 99 46 be 80 0e 2e bd 8a 18 53 bd
       -0.18475598 -0.1939441 -0.042494297 -0.051537074
0001d0 b4 21 80 3d 7d 4d a5 be 52 11 41 be 2f a6 f0 3c
       0.06256428 -0.3228568 -0.18854263 0.029376118
0001e0 0d 25 58 be 84 2b 44 be 7a 6e 18 3e 48 da 97 3e
       -0.21107884 -0.19157225 0.14885893 0.29658723
0001f0 d1 4d b9 3c 48 c4 ae bd 74 94 1f be 48 71 65 3e
       0.022620114 -0.085335314 -0.15583974 0.22406495
000200 90 30 8d bc 7a 16 41 3e 97 d8 d7 3e f6 f0 99 3e
       -0.01723507 0.1885623 0.42157432 0.3006665
000210 4f bb 01 3e 10 66 56 3e 63 2a 52 bd 42 c4 63 3e
       0.12669109 0.20937371 -0.051309954 0.22242835
000220 7b 47 2f 3e 2f e4 37 3e fe 32 81 be 48 21 ad be
       0.17117111 0.17958139 -0.25234216 -0.33814454
000230 03 c1 6f be e5 b5 31 3e e9 ea 9b 3e d3 35 67 bf
       -0.23413472 0.17354544 0.3045266 -0.90316504
000240 b2 31 6c be bd 0d 08 bf 67 7b 8c 3e 0a fb 11 be
       -0.23065832 -0.5314596 0.274379 -0.1425592
000250 1b 98 f9 be 08 6e 80 3e 84 32 ab bd f9 a2 54 3e
       -0.4874886 0.25083947 -0.083592445 0.20765294
000260 78 66 8f 3d e8 2f a3 3e 36 fc 15 3e 2d 1e 23 3f
       0.07001966 0.31872487 0.14646992 0.6371792
000270 e4 29 b3 be b6 6a 08 3e 60 88 48 3e 02 27 4f 3e
       -0.34992898 0.13321957 0.19583273 0.20229724
000280 00 99 f8 bb 11 a8 a0 3e 2b 9f 86 be 98 51 cb bd
       -0.0075865984 0.31378224 -0.2629331 -0.09927672
000290 8e 8f 33 3e 16 be 49 be 20 1d b8 bd 2f 0d 9b be
       0.1753523 -0.19701418 -0.0898993 -0.30283496
0002a0 97 05 a7 3e 40 fc f2 bb ba a4 5f 3e 11 1f ab be
       0.32621452 -0.0074153244 0.21840182 -0.3342214
0002b0 ca f7 19 be b6 03 98 be 6b 9a 86 3e 5c 53 15 3e
       -0.1503593 -0.2969033 0.26289687 0.1458258
0002c0 45 c7 94 3e 89 f5 5c be d4 ec a5 bd be f3 50 be
       0.2905828 -0.21578039 -0.08101812 -0.2040548
0002d0 3d 7b 93 3e e8 17 54 3d d8 27 a8 be cc f2 a0 bd
       0.2880496 0.05178061 -0.32842898 -0.0785881
0002e0 a3 cc 4b be 3a d0 46 3e e0 12 b7 bc fa aa 22 be
       -0.19902281 0.1941537 -0.022347867 -0.15885535
0002f0 86 fb 0c 3e 81 87 b4 be 37 08 ae 3e 8d 4a 53 be
       0.13767824 -0.3525963 0.33990642 -0.20633908
000300 1b 1c 45 3e d2 a1 c2 bd 36 2e 64 be b6 96 8e 3d
       0.19249003 -0.09503521 -0.22283253 0.069623396
000310 20 a7 40 be 02 38 20 3f 98 dd 54 3f aa ec 68 3d
       -0.18813753 0.6258546 0.83150625 0.056866325
000320 71 e9 a7 be 90 1a ac be 3c d1 c2 bd 1f 5a 97 3f
       -0.3279529 -0.33614016 -0.095125645 1.1824378
000330 a2 05 81 3f 54 16 f6 bd 96 44 9e be 90 fa 66 be
       1.0079844 -0.120159775 -0.30911702 -0.2255652
000340 d9 8e fd 3e 76 8e fc 3d b6 b0 f8 3d 77 60 3d bd
       0.49523047 0.1233186 0.1214308 -0.046234574
000350 73 dc 0e be 76 56 ba 3e 5b 91 e1 bc 1c a8 b9 bd
       -0.13951282 0.3639409 -0.027535131 -0.090652674
000360 ce 30 00 3e f9 a6 12 3f 21 fe 29 3e 47 07 04 bf
       0.12518618 0.5728603 0.16600849 -0.51573604
000370 16 24 06 3e 5a 5e 90 3d 9f be a2 be cc c8 e0 be
       0.13099703 0.07049246 -0.31786057 -0.43903196
000380 35 4a 88 3d ff f2 03 3e 80 7a e9 3e 44 22 12 3f
       0.06654779 0.12885664 0.45601273 0.57083535
000390 0c ab cb 3d 68 2f 4c 3d 8d bc 8d 3e ed 63 84 3e
       0.09944734 0.049849898 0.27682915 0.25857487
0003a0 b4 ba e8 3c 13 c7 92 be 39 84 32 be 49 f5 df bd
       0.02840934 -0.28667507 -0.17433251 -0.10935456
0003b0 63 ed 2f 3d 1b 6c 99 be ff 5b 46 bd 26 2e ed be
       0.042951 -0.2996529 -0.048427578 -0.4632427
0003c0 73 69 89 3d 11 d8 85 3d 94 85 1e be 7a 77 38 3c
       0.06709566 0.06535352 -0.15480644 0.011258954
0003d0 20 ef 1a be 5c bf c7 3e 65 2a 67 be 29 3d 27 bf
       -0.15130281 0.39013183 -0.22574766 -0.653277
0003e0 3c 8e b9 bd 06 7e 9f be 13 b3 a3 be e3 51 b3 3e
       -0.09060332 -0.31150836 -0.3197256 0.35023412
0003f0 1e 0c bb 3b bc a3 1c bd 45 0f 84 be b8 bb 10 3f
       0.0057082316 -0.038242087 -0.257929 0.56536436

sequential/dense_3/MatMul f4 [10, 16]
000000 19 cf bf bd c8 df 0f 3e 8b 88 5d 3e 74 b4 12 3e
       -0.093656726 0.1405021 0.21634118 0.1432665
000010 1c d8 d4 be c2 82 6c be 3c b3 10 be 8a 5f c3 3d
       -0.41571128 -0.23096755 -0.14130872 0.09539707
000020 99 4f c2 3e 11 8b 6e 3f be 41 3b 3e bc c2 f8 3e
       0.37951353 0.9318095 0.18286797 0.4858607
000030 a6 21 b4 bd 69 ba c1 be dd b8 12 be b7 93 d2 bd
       -0.087954804 -0.37837532 -0.14328332 -0.102820806
000040 94 07 b4 be 72 c1 e7 3e 33 0e 63 bf d7 c8 91 bd
       -0.35162032 0.45264775 -0.8869354 -0.07118385
000050 20 8f 98 3e bd ca f1 be f5 e8 f2 3e 4c 39 93 3e
       0.29796696 -0.4722499 0.47443357 0.28754652
000060 e5 8d 13 3e e1 22 d1 be f6 fd 0a be dc 5a 18 be
       0.14409597 -0.40846923 -0.13573441 -0.1487841
000070 aa f3 39 be ad ac 52 be ab 82 03 bc 9b 18 4d c0
       -0.18159357 -0.20573683 -0.008026759 -3.2046268
000080 7b f9 e0 be bf 71 b6 bf 24 39 f1 bf 03 29 9e 3e
       -0.43940338 -1.4253463 -1.8845563 0.30890664
000090 3e b3 8f be 12 d6 17 be eb ff 02 3f 79 cc 66 bf
       -0.28066438 -0.14827755 0.5117175 -0.9015575
0000a0 28 93 ec 3c ce b7 a1 bf 20 24 a1 bf 22 ff 3a 3e
       0.028878763 -1.2634218 -1.258915 0.18261388
0000b0 68 f8 f9 bf 84 74 8a be 1a 5a ff 3e 19 ed 98 be
       -1.9528933 -0.2704202 0.4987343 -0.2986839
0000c0 f4 ae 11 bd 42 24 aa 3e 54 9a fc bf a7 5e 55 3e
       -0.03556724 0.33230788 -1.9734597 0.20836888
0000d0 07 1c 51 bf 04 eb e1 3e 71 5a e5 bf c0 85 13 3e
       -0.8168339 0.44124615 -1.7918226 0.1440649
0000e0 e9 88 d7 3e 45 f6 69 3d 31 98 0c 3f b0 41 b3 3e
       0.42096642 0.057119627 0.54919726 0.35011053
0000f0 62 ce 14 be a0 45 ea 3c 24 b4 27 bf 2e 0b cd 3e
       -0.14531854 0.028597653 -0.6550925 0.40047592
000100 a2 b5 71 3e 22 94 0f 3e 51 49 fb 3e 48 c6 bd bc
       0.23604444 0.14021352 0.49079373 -0.023165837
000110 8f 7a 36 be 76 57 05 be 3c 75 3e bf 9e 5d a9 3e
       -0.1782019 -0.13021645 -0.74397635 0.33079237
000120 8e 3c f1 be 50 6e 5d bf f5 89 04 3f 70 ce 87 3e
       -0.47116512 -0.8649645 0.51773006 0.26524687
000130 96 21 9b 3e 29 81 b4 3e 28 09 89 bf 5c af f5 bd
       0.30299062 0.3525479 -1.0705919 -0.11996338
000140 4a 28 78 3c 11 99 32 3e d1 eb 0a c0 08 9e 49 3e
       0.015146324 0.17441203 -2.170643 0.1968919
000150 69 3b 83 be c8 fa c5 be 26 a9 04 bd 20 0f f9 3c
       -0.25631264 -0.38667893 -0.032387875 0.03040272
000160 9a 0d 7e bd 25 9f 22 bd 8a 77 eb be 8e 78 e9 bf
       -0.06202469 -0.039702553 -0.4598964 -1.8239915
000170 33 b3 06 bd ee 93 e7 be a7 15 be 3e b4 14 cd 3d
       -0.03288574 -0.4523005 0.37125894 0.100137144
000180 b3 37 12 be 12 4a 59 be 57 0a 21 bf c3 4e 43 be
       -0.1427906 -0.21219662 -0.629064 -0.19073014
000190 53 4a f2 3e 48 f3 81 bd 16 53 94 be c7 e2 af 3d
       0.4732233 -0.0634523 -0.2896964 0.08588176
0001a0 4b 1d 0a 3d 93 0a b8 3d 98 e6 5c bf 16 99 e9 bf
       0.033719342 0.08986392 -0.8628936 -1.8249843
0001b0 0a 22 c5 bf cb 5d ec be a1 1e 16 3f 3b 29 d7 be
       -1.5401013 -0.46165308 0.58640486 -0.42023644
0001c0 40 09 cf bd f3 69 70 bf d0 a9 0b c0 51 3a 77 3c
       -0.10109186 -0.93911666 -2.1822395 0.015089587
0001d0 69 46 d6 be f8 cc a2 be 06 da 1b 3f 0f 71 8e bf
       -0.41850594 -0.31797004 0.6087955 -1.1128253
0001e0 98 a2 80 3e c1 92 f2 bd 2f 66 1b bf c8 4d 95 3e
       0.2512405 -0.11844397 -0.60702795 0.29160905
0001f0 53 42 56 3e 01 54 32 be 40 1f d0 3d 74 0c 99 3f
       0.20923738 -0.17414857 0.101622105 1.1956925
000200 b4 6e 20 3e 51 5f ef bd f7 70 46 3f 48 d0 30 be
       0.1566723 -0.11688102 0.7751612 -0.17266953
000210 3a 48 95 be ee 4d ea 3e b4 f4 2d c0 36 81 82 be
       -0.29156667 0.4576258 -2.7180605 -0.25489205
000220 ab 33 4f be 70 7e 8b 3f 2d 1d ba 3e 51 f7 90 be
       -0.20234554 1.0897961 0.36350384 -0.28313687
000230 65 ac b4 3e 4d d7 84 3e 65 43 4e c0 ff bf 0d 3f
       0.35287777 0.2594551 -3.2228634 0.5537109
000240 83 5f 48 3e dd c2 0c be ee 58 4d be 8e 46 a3 3e
       0.19567685 -0.1374621 -0.20053455 0.31889766
000250 92 b2 13 be 2e ac dd be 50 d5 da 3e 6d 77 a5 3e
       -0.14423588 -0.43295425 0.4274087 0.32317677
000260 18 7e 91 be 27 de 8e be c0 b3 ca 3e 2f 4c c6 3d
       -0.28416514 -0.27903864 0.39590263 0.096824996
000270 b8 ad 9e be 08 0c b1 3e c2 4b 29 3e 61 80 f6 be
       -0.30991912 0.34579492 0.16532806 -0.4814482
