ohband-model/python/tflite/oh_band_model_60s.tflite (tflite, 196336 bytes, 8 tensors)

dense_3/bias f4 [10]
0	0x3f0ddfe3	0.5541975
1	0xbf676de1	-0.90402037
2	0xbf202401	-0.6255494
3	0xbeb61e7b	-0.3557013
4	0x3d8db3db	0.0691907
5	0xbf1117ca	-0.56676924
6	0x3f8d121b	1.102115
7	0x3e06e247	0.13172255
8	0x3e865294	0.26234877
9	0xbf33be1b	-0.7021195

dense_2/bias f4 [16]
0	0xbd00dfb8	-0.031463355
1	0x3e12e2b2	0.1434429
2	0xbe81a0c5	-0.2531797
3	0x3e890843	0.26764116
4	0x3d060181	0.032716278
5	0xbeb6bec3	-0.35692415
6	0xbbde5955	-0.0067855516
7	0xbd45eafc	-0.0483198
8	0xbdcf6ba6	-0.10127954
9	0x3db03daf	0.08605515
10	0x3ef456da	0.47722512
11	0xbc21fb80	-0.009886622
12	0xbe6602f3	-0.22462063
13	0x3f8d247d	1.102676
14	0x3d08fd01	0.03344441
15	0x3ea98591	0.33109716

dense_1/bias f4 [32]
0	0xbebe2444	-0.37137043
1	0xbc14e1ce	-0.009087039
2	0x3f027393	0.509576
3	0xbe20462c	-0.15651768
4	0xbd76b483	-0.060230743
5	0xbdc31c41	-0.095268734
6	0xbcc72dce	-0.024313834
7	0xbbc27c7c	-0.00593525
8	0xbdede383	-0.1161566
9	0x00000000	0.0
10	0xbd267e8e	-0.040648036
11	0x3b77049e	0.003769196
12	0xbbefab6d	-0.0073141367
13	0xbe386436	-0.18006977
14	0xbc052641	-0.008126796
15	0x3dffc42c	0.12488589
16	0xbea88891	-0.32916692
17	0xbbc4311b	-0.005987299
18	0xbceff9fd	-0.029294008
19	0xbd06d633	-0.03291912
20	0xbe6e8e30	-0.23296428
21	0xbee9c246	-0.4565603
22	0xbec6718c	-0.38758504
23	0x3e31c32b	0.17359607
24	0xbda4cb12	-0.08046545
25	0x3f0ca9fa	0.54946864
26	0xbe6cb8b8	-0.2311734
27	0xbe295cd3	-0.16539316
28	0xbe95a92e	-0.29230636
29	0x3ec7ce85	0.3902475
30	0x00000000	0.0
31	0xbdf37b34	-0.118887335

dense/bias f4 [64]
0	0x00000000	0.0
1	0xbbc6ff46	-0.0060729114
2	0xbbfc95c3	-0.0077082827
3	0xbe8d658c	-0.27616537
4	0xbc4cb23d	-0.012493667
5	0x00000000	0.0
6	0x00000000	0.0
7	0xbb84e596	-0.004055689
8	0xbc1091da	-0.008823836
9	0x00000000	0.0
10	0xbbc34bfe	-0.0059599867
11	0x3b5532d9	0.0032531528
12	0xbb936e3f	-0.0044992263
13	0x00000000	0.0
14	0x00000000	0.0
15	0xbe2349c8	-0.15946114
16	0xbb9271a0	-0.0044691116
17	0x00000000	0.0
18	0x00000000	0.0
19	0xbb4b5641	-0.0031026753
20	0xbb91b090	-0.0044460967
21	0x00000000	0.0
22	0x00000000	0.0
23	0x3d1a0135	0.037598807
24	0xbb35ec61	-0.00277593
25	0xbe745fbd	-0.23864646
26	0xbc381aba	-0.011236841
27	0x00000000	0.0
28	0x00000000	0.0
29	0x00000000	0.0
30	0xbb3da25b	-0.0028935883
31	0xbbc41fa4	-0.005985217
32	0xbc074288	-0.008255608
33	0xbc0933e5	-0.008374189
34	0xbbb4cf0e	-0.005517847
35	0xbbbbd3e5	-0.005732047
36	0xbd6a45c2	-0.057195432
37	0x00000000	0.0
38	0xbb94589c	-0.0045271646
39	0x00000000	0.0
40	0x00000000	0.0
41	0xbe14020e	-0.14453909
42	0xbc317841	-0.010831893
43	0xbbc46636	-0.00599363
44	0xbba48ce9	-0.0050216806
45	0xbb6cfcfc	-0.0036161533
46	0xbbf46c8e	-0.00745923
47	0xbc24bd69	-0.0100549245
48	0xbb589495	-0.0033047546
49	0xbbc47d9a	-0.005996418
50	0x00000000	0.0
51	0xbd7d0855	-0.061775524
52	0x3e7ca05e	0.2467055
53	0xbbe33092	-0.0069332803
54	0x00000000	0.0
55	0xbb8e5b62	-0.00434439
56	0xbd2df25b	-0.042467456
57	0xbbb02bb1	-0.005376302
58	0xbd3d62ca	-0.04623679
59	0x00000000	0.0
60	0xbbc42dc4	-0.005986901
61	0x00000000	0.0
62	0x00000000	0.0
63	0x00000000	0.0

sequential/dense/MatMul f4 [64, 714]
0	0xbd31602e	-0.043304615
1	0xbd39506e	-0.04524272
2	0xbc563de0	-0.013076276
3	0x3cdd20f8	0.02699326
4	0xbc5a2a58	-0.01331576
5	0xbd02d5f0	-0.031942308
6	0x3d9e3e5c	0.07726738
7	0xbd44c7d4	-0.048042133
8	0xbd62a8f3	-0.055336904
9	0x3d8e925c	0.069615096
10	0xbce3cad6	-0.02780668
11	0x3c70b448	0.01469142
12	0xbcbff5a0	-0.023432553
13	0x3d16b94e	0.036797814
14	0x3bbf69a0	0.005841449
15	0x3db24f88	0.08706576
16	0x3c628620	0.013825923
17	0xbd605ae6	-0.054774188
18	0xbd92714e	-0.071505174
19	0x3d1324e0	0.03592384
20	0xbc6a5c88	-0.014304288
21	0x3bf72cb0	0.007543169
22	0x3cc1ca68	0.023656085
23	0xbd6a7cec	-0.05724804
24	0xbc247f80	-0.010040164
25	0x3d528fa0	0.051406503
26	0xbd2b5f02	-0.041838653
27	0xbdae22c5	-0.085027255
28	0x3daf0158	0.08545178
29	0xbd58a8c7	-0.052895334
30	0xbd559e55	-0.05215295
31	0xbd480794	-0.048835352
32	0x3cccbc20	0.024992049
33	0xbdad1333	-0.084509276
34	0x3d54d008	0.051956207
35	0xbcd076d6	-0.02544729
36	0x3d1f470c	0.038886115
37	0xbd9a32ba	-0.075292066
38	0xbcd98216	-0.026551288
39	0x3d855f18	0.06512278
40	0x3d18397c	0.037164196
41	0xbda0e1b7	-0.07855552
42	0xbd3beb6a	-0.045878805
43	0xbd465481	-0.048420433
44	0x3d499a24	0.049219266
45	0x3da4d404	0.08048251
46	0xbba34eb0	-0.0049837455
47	0x3d5c80c4	0.053833738
48	0xbd418e3a	-0.04725478
49	0x3d3bfea0	0.045897126
50	0x3cfa1dac	0.030531727
51	0xbd604d81	-0.054761413
52	0x3d16ec90	0.036846697
53	0xbd8c5313	-0.06851783
54	0xbc494ef0	-0.012286887
55	0x3d8401da	0.06445666
56	0x3d911644	0.07084325
57	0x3c96da2c	0.01841458
58	0x3d3e09e0	0.046396136
59	0xbd61cb2f	-0.05512541
60	0xbc9fbe28	-0.019499853
61	0xbd9ce215	-0.07660309
62	0x3d07b7e2	0.03313435
63	0xbd604b55	-0.054759342
64	0xbd7749bc	-0.060373053
65	0x3a194800	0.00058472157
66	0xbd633b95	-0.055476744
67	0x3d9f4474	0.07776728
68	0xbd517c1f	-0.05114376
69	0xbd26b39f	-0.040698644
70	0xbd3f9383	-0.046771538
71	0x3d63dd1c	0.05563079
72	0xbc5fb608	-0.0136542395
73	0xbd034c13	-0.032054972
74	0x3db3d0f8	0.08780092
75	0x3d890b66	0.06691627
76	0xbaf3bac0	-0.0018595085
77	0x3d5e26a0	0.054236054
78	0x3c40e300	0.011772871
79	0x3b41ca60	0.0029570088
80	0x3d0eda1c	0.034875974
81	0x3db13ec2	0.08654548
82	0x3db32ad0	0.087484
83	0xbc85302c	-0.016258322
84	0xbd5e7392	-0.054309435
85	0xbda7eed3	-0.08199849
86	0xbd00cb3e	-0.031443827
87	0x3c9e79f8	0.019345269
88	0x3cbcb83c	0.023037069
89	0x3d62996c	0.055322096
90	0x3d59b61c	0.05315219
91	0xbd95418f	-0.07287895
92	0x3d6ef9e0	0.058343768
93	0xbda125e5	-0.07868556
94	0xbce0a866	-0.027424049
95	0x3d6da9cc	0.05802326
96	0x3c9bb43c	0.01900684
97	0xbd0e6599	-0.03476486
98	0x3c18b558	0.0093205795
99	0x3d7c2bb8	0.06156513
100	0xbbc53e60	-0.0060193986
101	0x3d72caec	0.059275553
102	0x3c24bd38	0.010054879
103	0xbd50bf1d	-0.05096351
104	0xbdaef143	-0.08542111
105	0x3d3cff0c	0.04614167
106	0x3c0bbff0	0.008529648
107	0xbda08e8a	-0.07839687
108	0x3d49d560	0.049275756
109	0x3d977644	0.07395604
110	0xbdac298a	-0.084063604
111	0xbd51126e	-0.051042967
112	0x3d4668f0	0.04843992
113	0xbd861815	-0.06547562
114	0x3cf8dc4c	0.030378483
115	0xbd5b67f6	-0.05356594
116	0x3d1dd8c4	0.038536802
117	0xbd798f9a	-0.060927965
118	0x3d932886	0.071854636
119	0x3c58ebc0	0.013239801
120	0x3d41d140	0.047318697
121	0xbc4fb928	-0.012678422
122	0xbd9d3860	-0.07676768
123	0xbda85e03	-0.08221056
124	0x3d36a584	0.04459144
125	0xbd10b41c	-0.035328016
126	0xbd9bc2a4	-0.07605484
127	0x3da674e2	0.081277624
128	0x3cdbadf8	0.026816353
129	0x3c844d78	0.016150221
130	0xbdb2c06e	-0.08728109
131	0x3ce70bf8	0.02820395
132	0xbdb37cfa	-0.08764072
133	0x3be2f6a0	0.0069263726
134	0x3d9b84c2	0.07593681
135	0x3da47e94	0.08031955
136	0x3d55ee00	0.052228928
137	0x3cb96fc4	0.022636302
138	0xbd66223e	-0.056185
139	0xbc8caef8	-0.017173275
140	0xbd8b39fa	-0.067981675
141	0xbda1416a	-0.07873805
142	0xbd56006d	-0.0522465
143	0x3d76809c	0.060181245
144	0x3d65aed0	0.056074917
145	0xbcd02c74	-0.025411822
146	0xbcb00bb0	-0.021489948
147	0x3d892bb4	0.06697789
148	0x3d785314	0.060626104
149	0xbda20546	-0.07911162
150	0xba855b00	-0.0010174215
151	0xbc407378	-0.01174628
152	0x3d36d1ec	0.04463379
153	0xbd0e3e3b	-0.034727316
154	0x3d882e64	0.06649473
155	0xbc1def88	-0.009639628
156	0xbd4267aa	-0.047462143
157	0x3cb36fa4	0.02190382
158	0x3d884c92	0.0665523
159	0xbb853dc0	-0.004066199
160	0xbd203ae2	-0.039118655
161	0x3c030a60	0.007998079
162	0x3b033680	0.0020021498
163	0xbdacb43f	-0.08432817
164	0x3d304de8	0.043043047
165	0xbb2f4ae0	-0.002674751
166	0x3ccca4a0	0.024980843
167	0xbda021d5	-0.07818953
168	0x3d86784c	0.065659136
169	0x3d076af4	0.033060983
170	0x3d92368c	0.0713931
171	0x3d8bae9c	0.068204135
172	0xbc163228	-0.009167232
173	0x3d9353bc	0.071937054
174	0x3d326774	0.04355569
175	0x3d881fde	0.06646703
176	0x3b591880	0.0033126175
177	0x3c348228	0.01101736
178	0xbd92246c	-0.07135853
179	0xbbe32aa0	-0.0069325715
180	0x3cbe4688	0.023226991
181	0x3d6d81c0	0.057985067
182	0x3c1d9b20	0.009619504
183	0x3db2bddc	0.08727619
184	0xbda252da	-0.07925959
185	0x3d61d63c	0.05513595
186	0xbd43e941	-0.04782987
187	0x3da5eeb4	0.0810217
188	0x3d1c6fd0	0.03819257
189	0x3cdfeec0	0.027335525
190	0xbd7cf5d6	-0.061757885
191	0xbccb9d90	-0.024855405
192	0xbdb21c55	-0.0869681
193	0xbcb7611c	-0.022385173
194	0xbd55334e	-0.05205088
195	0xbd3d427f	-0.046205994
196	0xbcdadbea	-0.026716191
197	0x3cc105bc	0.023562305
198	0x3da9fa50	0.082996964
199	0x3c13d938	0.009023957
200	0x3d791b00	0.060816765
201	0xbdab7456	-0.08371799
202	0x3d1f9ac4	0.038965955
203	0xbc06d6d0	-0.008229926
204	0x3d78e7f8	0.060768098
205	0xbd79483f	-0.060859915
206	0xbba6b170	-0.00508707
207	0xbd9487ae	-0.07252441
208	0x3c8a9da4	0.016920872
209	0x3cffe370	0.03123638
210	0x3d655238	0.055986613
211	0xbd984b0c	-0.07436189
212	0xbd4a022f	-0.04931849
213	0x3d80ad84	0.062830955
214	0x3c918910	0.017765552
215	0xbd295b83	-0.041347038
216	0x3bc9ae10	0.006154783
217	0x3d3fc458	0.046818107
218	0xbd9da2d5	-0.07697073
219	0xbc0e6ad0	-0.008692458
220	0x3da06012	0.07830824
221	0xbd86e575	-0.06586734
222	0xbd62d9ab	-0.055383366
223	0xbd6a8884	-0.057259098
224	0xbd0ccde6	-0.034376048
225	0x3cb16bc0	0.021657825
226	0x3d860c5c	0.06545326
227	0x3d2db474	0.04240842
228	0xbd47eb7a	-0.048808552
229	0x3dac20a2	0.08404662
230	0xbda4f30c	-0.0805417
231	0xbdadea61	-0.0849197
232	0xbb715a40	-0.0036827475
233	0xbd696398	-0.056979746
234	0x3d9c4672	0.07630624
235	0xbd778596	-0.06043013
236	0xbd80d245	-0.06290106
237	0xbcd0524e	-0.025429871
238	0xbd081fbf	-0.0332334
239	0x3d5a3da0	0.053281426
240	0x3d447754	0.047965363
241	0xbca43498	-0.02004461
242	0xbc68f368	-0.014218189
243	0x3c8831d0	0.016625315
244	0xbc1bdc10	-0.009512916
245	0xbda861f7	-0.0822181
246	0xbd3aab18	-0.045573324
247	0xbd93dc59	-0.07219762
248	0xbd09cb8e	-0.03364139
249	0x3c648758	0.013948284
250	0xbd1cf691	-0.03832108
251	0xbd8e14b4	-0.069375426
252	0xbd47aab1	-0.04874677
253	0x3d677834	0.05651112
254	0x3ce18e44	0.027533658
255	0x3d220800	0.03955841

sequential/dense_1/MatMul f4 [32, 64]
0	0xbb3c3b00	-0.002872169
1	0xbe7ec84a	-0.24881092
2	0x3de784ef	0.11304652
3	0x3f315c1b	0.69281167
4	0x3e059004	0.13043219
5	0xbe01d014	-0.12677032
6	0x3dd640e0	0.10461593
7	0x3dba8eb6	0.09109251
8	0x3e337eca	0.17528835
9	0x3e098344	0.1342898
10	0xbe6369c9	-0.22208323
11	0xbdfec40d	-0.124397375
12	0xbe3dfbc8	-0.18553078
13	0xbdc0e718	-0.09419078
14	0xbde09868	-0.10966569
15	0x3b7a89d1	0.0038229118
16	0x3db12258	0.08649129
17	0x3b697200	0.0035620928
18	0xbd4e53f0	-0.050373018
19	0xbdf67838	-0.12034649
20	0x3e6216e6	0.22079048
21	0x3e42d248	0.19025528
22	0x3d585a60	0.052820563
23	0xbde3de74	-0.11126414
24	0xbd9e713b	-0.07736441
25	0xbddd937d	-0.10819147
26	0x3e25b8b8	0.16183746
27	0xbd73ed10	-0.059552252
28	0x3e1b3614	0.15157348
29	0xbc0abb00	-0.008467436
30	0xbcf375ce	-0.02971926
31	0xbd07deea	-0.03317157
32	0xbe54c958	-0.20779932
33	0x3d4613a1	0.048358563
34	0x3e5e9964	0.21738201
35	0xbda6177b	-0.08109947
36	0xbebfe169	-0.37476662
37	0xbdae97a8	-0.0852502
38	0xbe31bc5e	-0.17357013
39	0xbd8024b0	-0.062569976
40	0x3d8eb5b0	0.06968248
41	0x3d0eb2b9	0.034838412
42	0xbd32e100	-0.043671608
43	0x3e62112b	0.22076862
44	0x3e758638	0.23976982
45	0x3e2719c4	0.16318423
46	0x3dfe7945	0.12425474
47	0x3dff952c	0.12479624
48	0x3e650fad	0.22369261
49	0x3e77ff44	0.2421847
50	0x3e6e0bcc	0.23246688
51	0xbe310a32	-0.17289045
52	0x3d65d740	0.05611348
53	0x3e1a6add	0.15079828
54	0xbe718410	-0.23585534
55	0x3e14b270	0.14521194
56	0x3cafd12e	0.02146205
57	0x3cec9580	0.02887988
58	0xbdcac798	-0.09901351
59	0xbe789cb0	-0.24278522
60	0x3dc13522	0.094339624
61	0x3e148394	0.14503318
62	0xbd755830	-0.059898555
63	0x3ded7678	0.11594862
64	0x3e014f44	0.12627894
65	0xbe80f522	-0.25187021
66	0xbe6b9bf5	-0.23008712
67	0x3dd0c0bb	0.101930104
68	0xbda69e98	-0.08135718
69	0xbe3caac4	-0.18424517
70	0x3e0cdf94	0.13757163
71	0xbe19e920	-0.15030336
72	0x3dd76621	0.105175264
73	0xbde5d7c8	-0.11222798
74	0x3e4c3580	0.19942284
75	0xbf2f4b1e	-0.68473995
76	0xbe0a62d0	-0.13514256
77	0xbe6db978	-0.23215282
78	0x3d9a6960	0.0753963
79	0xbe653c1f	-0.22386216
80	0xbd5ecff1	-0.054397527
81	0x3d8769e0	0.06611991
82	0xbdfb6690	-0.122754216
83	0x3e40483a	0.18777552
84	0x3d67cdcc	0.056592748
85	0xbbfda280	-0.007740319
86	0x3e0541cc	0.13013381
87	0x3e38b543	0.18037896
88	0x3da7a3a7	0.08185511
89	0xbea03fa0	-0.31298542
90	0xbe02f674	-0.12789327
91	0x3e78da14	0.2430194
92	0x3da8b460	0.08237529
93	0x3e05405c	0.13012832
94	0xbe56c435	-0.20973285
95	0xbe1b70d0	-0.15179753
96	0xbe576dd0	-0.21037984
97	0xbe273a40	-0.16330814
98	0x3d3b5d8e	0.045743518
99	0x3d2d2a30	0.04227656
100	0x3e4feb82	0.20304683
101	0x3deb8240	0.114994526
102	0x3daadab1	0.08342493
103	0xbe689bec	-0.2271573
104	0xbdfe5d20	-0.12420106
105	0x3d1cd81a	0.038292028
106	0xbe040470	-0.12892318
107	0xbd689362	-0.05678118
108	0x3dd6acde	0.104821905
109	0xbde07378	-0.10959524
110	0xbdd7d66a	-0.10538943
111	0x3e6c66aa	0.23086038
112	0xbe42643a	-0.18983546
113	0x3c8232dc	0.015893392
114	0xbe6047b0	-0.21902347
115	0x3e96d008	0.2945559
116	0xbf04433b	-0.51665086
117	0x3d9ab61a	0.07554264
118	0xbe2fb4b0	-0.1715877
119	0xbe0aa708	-0.1354028
120	0x3c01dd9c	0.007926371
121	0x3d4370e0	0.047715068
122	0xbe71cefe	-0.23614118
123	0xbdc78280	-0.09741688
124	0x3e1267e5	0.14297445
125	0x3c97b0a0	0.018516839
126	0xbe346b30	-0.17619014
127	0x3dba48b0	0.09095895
128	0x3e390b10	0.18070626
129	0xbe5eb012	-0.21746853
130	0x3dc7b2e2	0.09750916
131	0xbf288ad0	-0.6583681
132	0xbbcb3403	-0.0062012686
133	0x3e2dcfd0	0.16973805
134	0x3daac240	0.083378315
135	0x3e1a6296	0.1507667
136	0xbcdc195d	-0.026867563
137	0x3d6a3af0	0.057185113
138	0xbd491db8	-0.049100608
139	0x3dbb10ee	0.091340885
140	0xbde590d9	-0.11209268
141	0x3d4077e0	0.04698932
142	0xbc660100	-0.014038324
143	0xbdb84675	-0.089978136
144	0xbe80b38c	-0.25136983
145	0xbe683628	-0.22676909
146	0xbd813dc0	-0.06310606
147	0x3e59d2a8	0.21271765
148	0xbd11b61b	-0.03557406
149	0x3e7ba620	0.2457509
150	0x3e0ccebc	0.13750738
151	0xbe18e801	-0.14932252
152	0x3c0b6849	0.00850875
153	0x3da1d027	0.0790103
154	0x3b64115e	0.003480039
155	0xbd5f8230	-0.054567516
156	0xbe025d5c	-0.12730926
157	0x3d251250	0.040300667
158	0x3d920cb8	0.07131332
159	0xbd296c28	-0.04136291
160	0xbc6010cc	-0.01367588
161	0x3d4246a6	0.047430657
162	0x3bc30a79	0.005952176
163	0x3e3fa376	0.18714699
164	0xbee82822	-0.4534312
165	0x3e151a30	0.14560771
166	0xbe15c4db	-0.14625876
167	0x3e21a730	0.15786433
168	0xbddb3dc0	-0.10705137
169	0x3ed28520	0.4111719
170	0xbe3added	-0.1824872
171	0xbb95072a	-0.004547973
172	0xbdff93b2	-0.124793425
173	0x3d41b69f	0.0472933
174	0xbc61fe16	-0.013793489
175	0x3dbd7efc	0.09252736
176	0xbd20ee35	-0.039289672
177	0xbdb42d4b	-0.087977014
178	0xbd106b40	-0.03525853
179	0xbef16cf8	-0.4715345
180	0x3f281c21	0.6566792
181	0xbd9d51a1	-0.07681585
182	0xbd86e580	-0.065867424
183	0xbd804cba	-0.062646344
184	0x3da4e3b9	0.08051247
185	0x3e717a0d	0.23581715
186	0x3e5c264e	0.21498987
187	0xbddd0d98	-0.107936084
188	0x3e0a2c8d	0.13493557
189	0xbd8dfc90	-0.06932938
190	0x3d674530	0.056462467
191	0x3dc3c250	0.095585465
192	0xbe004d50	-0.12529492
193	0xbe50ddac	-0.20397061
194	0xbe0422f3	-0.12903957
195	0xbe2d6a8f	-0.1693518
196	0x3e14cc94	0.14531165
197	0xbd83c8c0	-0.064347744
198	0xbc951be0	-0.018201768
199	0x3d5fb94e	0.05462008
200	0x3dd59141	0.104280956
201	0x3d4a7ae0	0.04943359
202	0x3d947dc4	0.072505504
203	0xbebded81	-0.37095264
204	0xbe732056	-0.23742804
205	0x3e682458	0.22670114
206	0x3d00a7c0	0.03140998
207	0xbdbdb710	-0.09263432
208	0xbe667552	-0.22505692
209	0xbe05fb24	-0.13084084
210	0x3e33ca20	0.17557573
211	0xbe7948ce	-0.24344179
212	0xbe6a77e8	-0.22897303
213	0xbe0b6658	-0.1361326
214	0xbe6266a8	-0.22109473
215	0x3db76264	0.089543134
216	0x3e5a0a3f	0.21292971
217	0xbe25b331	-0.16181637
218	0x3e77d39b	0.24201815
219	0xbe61e388	-0.22059453
220	0xbdd10fd0	-0.10208094
221	0xbe2f325c	-0.17109054
222	0xbe70b3c9	-0.23506083
223	0xbdc28b46	-0.094992206
224	0x3d8ba9ac	0.06819472
225	0x3d149f6d	0.036284853
226	0x3dfa412f	0.12219464
227	0x3e453801	0.19259645
228	0x3f0c2116	0.54737985
229	0x3d9491c0	0.07254362
230	0xbe0856c4	-0.13314348
231	0xbe4d2e88	-0.20037282
232	0xbc8258c0	-0.01591146
233	0xbdd318a7	-0.103074364
234	0x3e125173	0.14288883
235	0x3e27d5eb	0.16390197
236	0x3d9b2682	0.07575704
237	0x3e1d4965	0.15360029
238	0x3e6d75ae	0.23189422
239	0xbdb006a7	-0.08595019
240	0x3e20f0e8	0.15716898
241	0xbe7a1ed2	-0.2442582
242	0xbd821dd0	-0.063533425
243	0x3e9fd5af	0.31217715
244	0xbf71d978	-0.94472456
245	0x3da04ae4	0.07826784
246	0x3e2bfee8	0.16796458
247	0x3e78a5f4	0.24282056
248	0x3e3866c1	0.18007948
249	0xbddd428f	-0.10803711
250	0xbd8264aa	-0.063668564
251	0xbde248e0	-0.11049056
252	0xbd0e1a51	-0.034693066
253	0xbb3ff100	-0.0029287934
254	0x3e34fe5c	0.17675155
255	0x3e0169b4	0.12637979

sequential/dense_2/MatMul f4 [16, 32]
0	0xbdbff8e4	-0.09373644
1	0xbe28dc60	-0.16490316
2	0xbe83e06b	-0.25757155
3	0xbeabdb14	-0.3356558
4	0xbd252ab0	-0.040323913
5	0x3e0702ac	0.13184613
6	0x3b4f9b80	0.0031678379
7	0x3e85c8b5	0.2612969
8	0x3d99cf28	0.07510215
9	0xbbac9c80	-0.0052676797
10	0xbe363616	-0.1779407
11	0xbe15e0c9	-0.1463653
12	0xbddcb504	-0.107767135
13	0xbd1c7a7a	-0.03820274
14	0xbea5a7b3	-0.32354507
15	0x3e604eb5	0.21905024
16	0x3e47b332	0.19501951
17	0x3ea23c6d	0.31686726
18	0xbe40e42f	-0.18837045
19	0xbe98b5ec	-0.29826295
20	0x3d16ec94	0.036846712
21	0x3e8673bc	0.26260173
22	0x3e0dea9e	0.1385903
23	0xbe9714ee	-0.29508156
24	0x3dfaa5a8	0.12238628
25	0xbe0028ce	-0.12515566
26	0xbea09623	-0.31364545
27	0xbe9aa377	-0.3020284
28	0x3d62e985	0.055398483
29	0xbd810b07	-0.063009314
30	0xbd892948	-0.06697327
31	0xbe04576e	-0.12923977
32	0x3e1940de	0.14966151
33	0x3f162ec2	0.58665097
34	0xbef8fd2b	-0.48630652
35	0x3f20ce88	0.6281514
36	0x3f0d8e55	0.55295306
37	0xbbc2a3be	-0.0059399297
38	0xbdad468e	-0.08460723
39	0x3c316295	0.010826726
40	0x3d247079	0.040146325
41	0xbe52cbdf	-0.20585583
42	0xbe5f99ff	-0.21836089
43	0x3e7783f1	0.24171425
44	0x3e3f7d24	0.18700081
45	0x3f246870	0.6422186
46	0xbe05b61c	-0.1305775
47	0x3ed58378	0.41701865
48	0xbe318b19	-0.17338218
49	0xbe01a7aa	-0.12661615
50	0xbe98c6b8	-0.2983911
51	0x3f60cc99	0.8781219
52	0x3e111af9	0.14170446
53	0xbebc3a8e	-0.36763424
54	0xbec84f17	-0.3912284
55	0xbdf32b0e	-0.118734464
56	0x3b580a5b	0.0032965157
57	0x3ec08c5b	0.37607083
58	0x3e5ffc81	0.21873666
59	0x3d37fe90	0.044920504
60	0xbe05bc02	-0.1306
61	0x3e8983a5	0.2685825
62	0x3cc81620	0.024424613
63	0x3e853bb7	0.2602212
64	0x3ed360be	0.41284746
65	0xbeacf197	-0.33778068
66	0xbe9a8cf7	-0.30185673
67	0x3e732abd	0.23746772
68	0xbef2ed3a	-0.47446615
69	0x3e907a9c	0.28218544
70	0xbe1081b5	-0.1411198
71	0xbe9d3c81	-0.30710223
72	0x3e1bac7f	0.15202521
73	0x3b93e280	0.004513085
74	0x3e8f8bd8	0.2803638
75	0xbee4a3ff	-0.4465637
76	0x3e2d4cf8	0.16923892
77	0x3f26c6d2	0.65147126
78	0xbe080615	-0.1328357
79	0x3e8fd84c	0.2809471
80	0x3e505dbd	0.20348258
81	0x3e9e8ecd	0.30968323
82	0xbf10a600	-0.56503296
83	0x3f4868a1	0.7828465
84	0x3edfd956	0.43720502
85	0x3f8bb22a	1.0913746
86	0x3f3ccbdf	0.7374858
87	0xbd6cf0c8	-0.057846814
88	0xbd840962	-0.06447102
89	0xbf48d92b	-0.7845637
90	0x3e0c0dbd	0.13677116
91	0x3f0c5df3	0.54830855
92	0x3ddb553d	0.10709617
93	0x3dc5e409	0.09662635
94	0x3e0340d4	0.12817699
95	0xbcaf95a4	-0.021433659
96	0xbf422cbc	-0.7584951
97	0x3f1292e7	0.57255405
98	0x3e2fefbe	0.17181298
99	0x3f40d007	0.75317425
100	0xbf1b804d	-0.60742646
101	0xbdc589f3	-0.09645452
102	0xbecfe854	-0.4060694
103	0xbe6d161e	-0.23152968
104	0x3d2fb5c3	0.04289795
105	0xbe77d8c8	-0.24203789
106	0xbec05a38	-0.3756883
107	0x3f4aae15	0.7917188
108	0xbe8cb398	-0.2748077
109	0xbe808aa1	-0.25105765
110	0x3dc978dc	0.09837505
111	0xbeae2291	-0.34010747
112	0xbe22545c	-0.15852493
113	0x3eb38f7d	0.3507041
114	0xbef82550	-0.48465967
115	0xbd9a68ff	-0.07539558
116	0xbe9a42e6	-0.30129164
117	0x3df4979c	0.1194298
118	0x3edab63e	0.42717165
119	0xbe3e249a	-0.1856865
120	0xbe3cebe4	-0.1844936
121	0x3f817cd0	1.0116215
122	0x3e7588e4	0.23978001
123	0xbe59dc06	-0.21275339
124	0xbf2de14b	-0.67921895
125	0x3ea5425a	0.32277185
126	0xbe23fa0e	-0.16013357
127	0x3e1d4702	0.15359119
128	0xbe6b755d	-0.2299399
129	0x3e8418d7	0.258002
130	0x3e3a6e88	0.18206227
131	0xbf0d197b	-0.55117005
132	0xbf10026d	-0.562537
133	0xbe4e5283	-0.20148663
134	0xbf49261e	-0.7857379
135	0x3c25ba84	0.01011527
136	0xbe02a040	-0.12756443
137	0xbeb0d297	-0.34535667
138	0xbea03165	-0.31287685
139	0x3e15e691	0.14638735
140	0xbe42ec12	-0.19035366
141	0x3ebf3fbd	0.37353316
142	0x3d63ffb0	0.055663764
143	0x3ef09d00	0.46994781
144	0xbdda08bd	-0.10646198
145	0x3da2f200	0.07956314
146	0xbedccd07	-0.43125173
147	0x3ee80421	0.4531565
148	0x3ec2bd09	0.38034847
149	0xbf0c363e	-0.54770267
150	0xbe0aa401	-0.13539125
151	0x3dc4a75d	0.096022345
152	0x3e453b65	0.19260938
153	0x3e87700a	0.26452667
154	0xbdc06c37	-0.0939564
155	0xbeb8ca15	-0.36091676
156	0xbe2d625c	-0.16932052
157	0x3e3eeb64	0.18644482
158	0x3dae9abc	0.08525607
159	0xbdba2b93	-0.090903424
160	0x3e513f0f	0.20434211
161	0x3e059bdd	0.13047738
162	0x3f0779a2	0.5291997
163	0x3ef5ba9a	0.47993928
164	0x3f7fb461	0.9988461
165	0x3d464def	0.048414167
166	0xbece32fd	-0.40273276
167	0xbba6d2ff	-0.0050910707
168	0x3e863c47	0.26217863
169	0xbdc5f620	-0.09666085
170	0x3ec33c93	0.38132152
171	0x3ea4a61d	0.32157984
172	0x3e8c64d1	0.27420667
173	0xbdaab5ab	-0.08335432
174	0x3ea46712	0.32109886
175	0x3f1af11b	0.6052415
176	0x3e25d24e	0.16193506
177	0x3ea5af3d	0.3236026
178	0x3e763f9c	0.24047703
179	0xbe82ac06	-0.25521868
180	0x3e98bade	0.29830068
181	0xbe785e91	-0.24254824
182	0x3f0ccb09	0.5499731
183	0x3e6f21f8	0.23352802
184	0x3e34c1a3	0.17651992
185	0xbef84326	-0.4848873
186	0xbecd7524	-0.40128434
187	0xbf30367b	-0.6883313
188	0x3f00854d	0.502034
189	0xbed2f979	-0.41205958
190	0x3d999f4c	0.075010866
191	0xbe5e90b2	-0.21734884
192	0x3e46fce9	0.19432415
193	0x3e61ffb3	0.22070198
194	0xbe7d7076	-0.24749932
195	0xbe5c0f68	-0.21490252
196	0xbd6f06b8	-0.058356017
197	0x3e9f26fd	0.31084433
198	0xbe867795	-0.2626311
199	0xbe6a5230	-0.22882915
200	0x3c937980	0.018002272
201	0x3ea74d01	0.32675937
202	0xbe8b8f5b	-0.2725781
203	0xbd544e58	-0.051832527
204	0x3eafa695	0.3430678
205	0xbe796896	-0.24356303
206	0xbdacccaf	-0.08437478
207	0x3ea76624	0.32695115
208	0xbd703ba3	-0.058650624
209	0x3e66f20a	0.22553268
210	0xbd9488cd	-0.07252655
211	0xbeb5b69f	-0.3549089
212	0xbd92fa64	-0.071766645
213	0xbe3d211a	-0.18469658
214	0x3e6d2f18	0.23162496
215	0xbe22262f	-0.15834878
216	0x3dd053e4	0.10172251
217	0xbe84b830	-0.25921774
218	0x3e13cdc4	0.14433962
219	0xbeae96a1	-0.34099296
220	0xbe99c0ca	-0.300299
221	0x3e1852b6	0.14875302
222	0x3da5a19c	0.08087465
223	0xbdf46364	-0.1193302
224	0x3eb50016	0.35351628
225	0xbe067aa3	-0.1313272
226	0x3eaa4738	0.3325746
227	0x3c292dbb	0.010325844
228	0x3f7f4486	0.99713933
229	0xbe9d7bcf	-0.3075852
230	0x3f6b3f65	0.9189361
231	0xbd3338f5	-0.04375549
232	0xbe5800bd	-0.21094032
233	0xbe9e6a2d	-0.3094038
234	0xbc4d35ca	-0.012525031
235	0x3e32d31c	0.17463344
236	0xbea458b9	-0.3209894
237	0xbcd14bc2	-0.02554882
238	0x3d24c370	0.040225446
239	0x3c534d80	0.012896895
240	0x3f30ab89	0.6901174
241	0xbc4f49e0	-0.0126518905
242	0x3f31073c	0.69151664
243	0xbe8979e2	-0.26850802
244	0x3f13dfbe	0.5776328
245	0x3e39fc17	0.18162571
246	0x3d272685	0.04080822
247	0x3f07bdd2	0.5302402
248	0x3e60205f	0.21887349
249	0xbf03ccfb	-0.5148465
250	0x3e9e63f8	0.30935645
251	0x3da6aa74	0.0813798
252	0x3ef059bb	0.4694346
253	0x3ea84d72	0.32871586
254	0x3ce94bd0	0.028478533
255	0xbd972c06	-0.07381444

sequential/dense_3/MatMul f4 [10, 16]
0	0x3ec0e83a	0.37677175
1	0xbf0bc171	-0.54592043
2	0x3d871372	0.06595506
3	0x3eefada9	0.4681218
4	0xbdf37f59	-0.11889524
5	0xbf94fd1d	-1.1639744
6	0xbdf717d9	-0.120650955
7	0xba43a0f3	-0.0007462643
8	0x3e4c565a	0.19954816
9	0xc020cb69	-2.5124152
10	0x3f0916a3	0.53550166
11	0x3d8a4589	0.06751544
12	0x3f23a5ee	0.63925064
13	0xbe341379	-0.17585553
14	0x3d84ed1b	0.06490537
15	0x3f0f635f	0.56011003
16	0x3c10b87f	0.00883305
17	0x3e9c4664	0.30522454
18	0x3e56ac07	0.2096406
19	0xbf150be9	-0.582213
20	0xbe340945	-0.17581661
21	0x3eb710ab	0.35754904
22	0xbef45599	-0.47721556
23	0xbe5d9850	-0.21640134
24	0xbea0b669	-0.31389168
25	0x3ec16e54	0.37779486
26	0xbc2434cc	-0.010022353
27	0x3e80d7ac	0.25164545
28	0x3eac85f9	0.33695963
29	0xbfad1eed	-1.3525063
30	0xbf8512c9	-1.0396358
31	0x3e6d1d2b	0.23155658
32	0x3d63e51e	0.055638425
33	0x3ed2a28d	0.4113964
34	0x3cbd887e	0.023136374
35	0xbf0acdc6	-0.54220235
36	0x3f1dd018	0.6164565
37	0x3ec1a0dc	0.37818038
38	0xbb9f5650	-0.004862584
39	0xbf69a690	-0.9126978
40	0xbcca7940	-0.02471602
41	0x3f26a2b7	0.65092033
42	0x3d9261ef	0.071475856
43	0xbea9d2bd	-0.33168593
44	0xbf0e6ef3	-0.55638045
45	0xc04d8038	-3.2109509
46	0xbff76e17	-1.9330472
47	0xbf97544c	-1.18226
48	0xbd4786e8	-0.04871264
49	0xbe434edf	-0.19073056
50	0xbecef8f9	-0.40424326
51	0xbf812558	-1.0089521
52	0x3e32afd3	0.17449884
53	0x3f38f442	0.7224771
54	0xbe77c546	-0.24196348
55	0x3edc6d36	0.4305207
56	0xbe6e0a65	-0.23246153
57	0xbf92884a	-1.1447842
58	0xbfe8d2c7	-1.8189324
59	0x3ec3ad75	0.38218275
60	0x3f1b575c	0.60680175
61	0x3e8e79db	0.27827343
62	0x3efa5670	0.48894072
63	0xbe86a098	-0.26294398
64	0x3ef0c3a8	0.47024274
65	0xc07116a1	-3.7670062
66	0xbd81f916	-0.063463375
67	0xbdbd9a68	-0.09257966
68	0xbe85bc4e	-0.26120228
69	0xbf477aa8	-0.77921534
70	0xbeef89e8	-0.46784902
71	0x3e9fcefc	0.31212604
72	0x3e52e8f7	0.20596682
73	0xbf473f25	-0.77830726
74	0xbff18330	-1.886816
75	0x3e6c4726	0.23074016
76	0xbc35f97c	-0.011106845
77	0x3f1b214c	0.6059768
78	0x3e4db776	0.20089516
79	0x3f06805c	0.5253961
80	0xbe7af652	-0.24508026
81	0xbd870603	-0.065929435
82	0x3e96a59d	0.29423228
83	0xbf11277c	-0.56700873
84	0xbd8409ab	-0.064471565
85	0xbee51212	-0.4474035
86	0xbd47d873	-0.048790406
87	0x3e0d37ca	0.13790813
88	0xbe9f72e8	-0.31142354
89	0xbdc48a47	-0.09596687
90	0x3dd699cc	0.10478553
91	0xbe910cfa	-0.28330213
92	0xbd7977b7	-0.060905185
93	0xbe97771a	-0.29583055
94	0x3e399da8	0.18126547
95	0x3eb1f84d	0.3475975
96	0xbeed338e	-0.46328396
97	0x3df8ba92	0.121449605
98	0xbeab585c	-0.3346585
99	0x3f71341e	0.9422015
100	0x3e13f1cd	0.14447708
101	0xbe80a0cb	-0.25122675
102	0xbdea5f6b	-0.11443981
103	0xbe5f8705	-0.2182885
104	0xbe2a00c4	-0.16601855
105	0x3e7aaea8	0.24480689
106	0x3eef427a	0.46730405
107	0x3e2f699e	0.17130134
108	0xbec828db	-0.3909367
109	0xbd843c26	-0.06456785
110	0xbd489491	-0.04896981
111	0x3d2f73d6	0.04283508
112	0x3e39b788	0.18136418
113	0x3f2afcb4	0.66791844
114	0x3ec5308b	0.38513598
115	0x3e9a2fd5	0.30114618
116	0x3c88a579	0.016680466
117	0xbfd4dbaa	-1.6629536
118	0x3e265784	0.16244322
119	0xc02b1a13	-2.6734664
120	0xbe41999d	-0.18906255
121	0xbf2cb076	-0.6745676
122	0xbd2e7207	-0.042589214
123	0xbee73113	-0.45154628
124	0x3e9f422d	0.31105176
125	0xc003adc5	-2.057481
126	0xc04b2ca0	-3.1745987
127	0xbff41e95	-1.9071833
128	0xbe9f1bf7	-0.31076023
129	0xbf8b0d57	-1.0863446
130	0xc067dd18	-3.6228695
131	0xbe97689f	-0.29572007
132	0xc023f848	-2.562029
133	0xbf03ada3	-0.51436824
134	0xbe49c431	-0.19703747
135	0x3f2b5a9f	0.6693515
136	0x3d82cc66	0.06386642
137	0xbe18548f	-0.14876007
138	0xbe939f7f	-0.28832623
139	0xbe817223	-0.25282392
140	0x3edbc7d5	0.42925897
141	0x3efcef11	0.49401143
142	0xbd6d938a	-0.058002032
143	0x3efbf486	0.49209994
144	0x3d261b23	0.040553223
145	0x3e101f6e	0.1407449
146	0xbef69ca7	-0.4816639
147	0xbe532681	-0.20620157
148	0x3c756273	0.014977085
149	0x3f870a5b	1.0550035
150	0x3e5e47a7	0.2170702
151	0x3e03e582	0.12880519
152	0x3d16fe83	0.036863815
153	0x3f4a5fbc	0.7905233
154	0x3e83f36c	0.25771654
155	0x3a947747	0.0011327051
156	0xc0816823	-4.043962
157	0xbfabcc69	-1.3421756
158	0xbf3d60c8	-0.739758
159	0xbfef3e92	-1.869097
